…
_coef': "tensor([0.], device='cuda:0', requires_grad=True)", 'ent_coef': 'auto', 'target_update_interval': 1, 'ent_coef_optimizer': 'Adam (\nParameter Group 0\n    amsgrad: False\n    betas: (0.9, 0.999)\n    capturable: False\n    decoupled_weight_decay: False\n    differentiable: False\n    eps: 1e-08\n    foreach: None\n    fused: None\n    lr: 0.0003\n    maximize: False\n    weight_decay: 0\n)', 'lr_schedule': 'FloatSchedule(ConstantSchedule(val=0.0003))', 'policy': 'MultiInputPolicy(\n  (actor): Actor(\n    (features_extractor): CustomEncoder(\n      (cnn_global): Sequential(\n        (0): Conv2d(4, 16, kernel_size=(5, 5), stride=(2, 2), padding=(2, 2), bias=False)\n        (1): GroupNorm(8, 16, eps=1e-05, affine=True)\n        (2): ReLU()\n        (3): Conv2d(16, 32, kernel_size=(3, 3), stride=(2, 2), padding=(1, 1), bias=False)\n        (4): GroupNorm(8, 32, eps=1e-05, affine=True)\n        (5): ReLU()\n        (6): Conv2d(32, 64, kernel_size=(3, 3), stride=(2, 2), padding=(1, 1), bias=False)\n        (7): GroupNorm(8, 64, eps=1e-05, affine=True)\n        (8): ReLU()\n        (9): AdaptiveAvgPool2d(output_size=(1, 1))\n        (10): Flatten(start_dim=1, end_dim=-1)\n      )\n      (cnn_local): Sequential(\n        (0): Conv2d(4, 16, kernel_size=(5, 5), stride=(2, 2), padding=(2, 2), bias=False)\n        (1): GroupNorm(8, 16, eps=1e-05, affine=True)\n        (2): ReLU()\n        (3): Conv2d(16, 32, kernel_size=(3, 3), stride=(2, 2), padding=(1, 1), bias=False)\n        (4): GroupNorm(8, 32, eps=1e-05, affine=True)\n        (5): ReLU()\n        (6): Conv2d(32, 64, kernel_size=(3, 3), stride=(2, 2), padding=(1, 1), bias=False)\n        (7): GroupNorm(8, 64, eps=1e-05, affine=True)\n        (8): ReLU()\n        (9): AdaptiveAvgPool2d(output_size=(1, 1))\n        (10): Flatten(start_dim=1, end_dim=-1)\n      )\n      (pose_mlp): Sequential(\n        (0): Linear(in_features=6, out_features=64, bias=True)\n        (1): LayerNorm((64,), eps=1e-05, elementwise_affine=True)\n        (2): ReLU()\n        (3): Linear(in_features=64, out_features=64, bias=True)\n        (4): LayerNorm((64,), eps=1e-05, elementwise_affine=True)\n        (5): ReLU()\n      )\n      (fuse): Sequential(\n        (0): Linear(in_features=192, out_features=256, bias=True)\n        (1): ReLU()\n        (2): Linear(in_features=256, out_features=256, bias=True)\n        (3): ReLU()\n      )\n    )\n    (latent_pi): Sequential(\n      (0): Linear(in_features=256, out_features=256, bias=True)\n      (1): ReLU()\n      (2): Linear(in_features=256, out_features=256, bias=True)\n      (3): ReLU()\n    )\n    (mu): Linear(in_features=256, out_features=3, bias=True)\n    (log_std): Linear(in_features=256, out_features=3, bias=True)\n  )\n  (critic): ContinuousCritic(\n    (features_extractor): CustomEncoder(\n      (cnn_global): Sequential(\n        (0): Conv2d(4, 16, kernel_size=(5, 5), stride=(2, 2), padding=(2, 2), bias=False)\n        (1): GroupNorm(8, 16, eps=1e-05, affine=True)\n        (2): ReLU()\n        (3): Conv2d(16, 32, kernel_size=(3, 3), stride=(2, 2), padding=(1, 1), bias=False)\n        (4): GroupNorm(8, 32, eps=1e-05, affine=True)\n        (5): ReLU()\n        (6): Conv2d(32, 64, kernel_size=(3, 3), stride=(2, 2), padding=(1, 1), bias=False)\n        (7): GroupNorm(8, 64, eps=1e-05, affine=True)\n        (8): ReLU()\n        (9): AdaptiveAvgPool2d(output_size=(1, 1))\n        (10): Flatten(start_dim=1, end_dim=-1)\n      )\n      (cnn_local): Sequential(\n        (0): Conv2d(4, 16, kernel_size=(5, 5), stride=(2, 2), padding=(2, 2), bias=False)\n        (1): GroupNorm(8, 16, eps=1e-05, affine=True)\n        (2): ReLU()\n        (3): Conv2d(16, 32, kernel_size=(3, 3), stride=(2, 2), padding=(1, 1), bias=False)\n        (4): GroupNorm(8, 32, eps=1e-05, affine=True)\n        (5): ReLU()\n        (6): Conv2d(32, 64, kernel_size=(3, 3), stride=(2, 2), padding=(1, 1), bias=False)\n        (7): GroupNorm(8, 64, eps=1e-05, affine=True)\n        (8): ReLU()\n        (9): AdaptiveAvgPool2d(output_size=(1, 1))\n        (10): Flatten(start_dim=1, end_dim=-1)\n      )\n      (pose_mlp): Sequential(\n        (0): Linear(in_features=6, out_features=64, bias=True)\n        (1): LayerNorm((64,), eps=1e-05, elementwise_affine=True)\n        (2): ReLU()\n        (3): Linear(in_features=64, out_features=64, bias=True)\n        (4): LayerNorm((64,), eps=1e-05, elementwise_affine=True)\n        (5): ReLU()\n      )\n      (fuse): Sequential(\n        (0): Linear(in_features=192, out_features=256, bias=True)\n        (1): ReLU()\n        (2): Linear(in_features=256, out_features=256, bias=True)\n        (3): ReLU()\n      )\n    )\n    (qf0): Sequential(\n      (0): Linear(in_features=259, out_features=256, bias=True)\n      (1): ReLU()\n      (2): Linear(in_features=256, out_features=256, bias=True)\n      (3): ReLU()\n      (4): Linear(in_features=256, out_features=1, bias=True)\n    )\n    (qf1): Sequential(\n      (0): Linear(in_features=259, out_features=256, bias=True)\n      (1): ReLU()\n      (2): Linear(in_features=256, out_features=256, bias=True)\n      (3): ReLU()\n      (4): Linear(in_features=256, out_features=1, bias=True)\n    )\n  )\n  (critic_target): ContinuousCritic(\n    (features_extractor): CustomEncoder(\n      (cnn_global): Sequential(\n        (0): Conv2d(4, 16, kernel_size=(5, 5), stride=(2, 2), padding=(2, 2), bias=False)\n        (1): GroupNorm(8, 16, eps=1e-05, affine=True)\n        (2): ReLU()\n        (3): Conv2d(16, 32, kernel_size=(3, 3), stride=(2, 2), padding=(1, 1), bias=False)\n        (4): GroupNorm(8, 32, eps=1e-05, affine=True)\n        (5): ReLU()\n        (6): Conv2d(32, 64, kernel_size=(3, 3), stride=(2, 2), padding=(1, 1), bias=False)\n        (7): GroupNorm(8, 64, eps=1e-05, affine=True)\n        (8): ReLU()\n        (9): AdaptiveAvgPool2d(output_size=(1, 1))\n        (10): Flatten(start_dim=1, end_dim=-1)\n      )\n      (cnn_local): Sequential(\n        (0): Conv2d(4, 16, kernel_size=(5, 5), stride=(2, 2), padding=(2, 2), bias=False)\n        (1): GroupNorm(8, 16, eps=1e-05, affine=True)\n        (2): ReLU()\n        (3): Conv2d(16, 32, kernel_size=(3, 3), stride=(2, 2), padding=(1, 1), bias=False)\n        (4): GroupNorm(8, 32, eps=1e-05, affine=True)\n        (5): ReLU()\n        (6): Conv2d(32, 64, kernel_size=(3, 3), stride=(2, 2), padding=(1, 1), bias=False)\n        (7): GroupNorm(8, 64, eps=1e-05, affine=True)\n        (8): ReLU()\n        (9): AdaptiveAvgPool2d(output_size=(1, 1))\n        (10): Flatten(start_dim=1, end_dim=-1)\n      )\n      (pose_mlp): Sequential(\n        (0): Linear(in_features=6, out_features=64, bias=True)\n        (1): LayerNorm((64,), eps=1e-05, elementwise_affine=True)\n        (2): ReLU()\n        (3): Linear(in_features=64, out_features=64, bias=True)\n        (4): LayerNorm((64,), eps=1e-05, elementwise_affine=True)\n        (5): ReLU()\n      )\n      (fuse): Sequential(\n        (0): Linear(in_features=192, out_features=256, bias=True)\n        (1): ReLU()\n        (2): Linear(in_features=256, out_features=256, bias=True)\n        (3): ReLU()\n      )\n    )\n    (qf0): Sequential(\n      (0): Linear(in_features=259, out_features=256, bias=True)\n      (1): ReLU()\n      (2): Linear(in_features=256, out_features=256, bias=True)\n      (3): ReLU()\n      (4): Linear(in_features=256, out_features=1, bias=True)\n    )\n    (qf1): Sequential(\n      (0): Linear(in_features=259, out_features=256, bias=True)\n      (1): ReLU()\n      (2): Linear(in_features=256, out_features=256, bias=True)\n      (3): ReLU()\n      (4): Linear(in_features=256, out_features=1, bias=True)\n    )\n  )\n)', 'actor': 'Actor(\n  (features_extractor): CustomEncoder(\n    (cnn_global): Sequential(\n      (0): Conv2d(4, 16, kernel_size=(5, 5), stride=(2, 2), padding=(2, 2), bias=False)\n      (1): GroupNorm(8, 16, eps=1e-05, affine=True)\n      (2): ReLU()\n      (3): Conv2d(16, 32, kernel_size=(3, 3), stride=(2, 2), padding=(1, 1), bias=False)\n      (4): GroupNorm(8, 32, eps=1e-05, affine=True)\n      (5): ReLU()\n      (6): Conv2d(32, 64, kernel_size=(3, 3), stride=(2, 2), padding=(1, 1), bias=False)\n      (7): GroupNorm(8, 64, eps=1e-05, affine=True)\n      (8): ReLU()\n      (9): AdaptiveAvgPool2d(output_size=(1, 1))\n      (10): Flatten(start_dim=1, end_dim=-1)\n    )\n    (cnn_local): Sequential(\n      (0): Conv2d(4, 16, kernel_size=(5, 5), stride=(2, 2), padding=(2, 2), bias=False)\n      (1): GroupNorm(8, 16, eps=1e-05, affine=True)\n      (2): ReLU()\n      (3): Conv2d(16, 32, kernel_size=(3, 3), stride=(2, 2), padding=(1, 1), bias=False)\n      (4): GroupNorm(8, 32, eps=1e-05, affine=True)\n      (5): ReLU()\n      (6): Conv2d(32, 64, kernel_size=(3, 3), stride=(2, 2), padding=(1, 1), bias=False)\n      (7): GroupNorm(8, 64, eps=1e-05, affine=True)\n      (8): ReLU()\n      (9): AdaptiveAvgPool2d(output_size=(1, 1))\n      (10): Flatten(start_dim=1, end_dim=-1)\n    )\n    (pose_mlp): Sequential(\n      (0): Linear(in_features=6, out_features=64, bias=True)\n      (1): LayerNorm((64,), eps=1e-05, elementwise_affine=True)\n      (2): ReLU()\n      (3): Linear(in_features=64, out_features=64, bias=True)\n      (4): LayerNorm((64,), eps=1e-05, elementwise_affine=True)\n      (5): ReLU()\n    )\n    (fuse): Sequential(\n      (0): Linear(in_features=192, out_features=256, bias=True)\n      (1): ReLU()\n      (2): Linear(in_features=256, out_features=256, bias=True)\n      (3): ReLU()\n    )\n  )\n  (latent_pi): Sequential(\n    (0): Linear(in_features=256, out_features=256, bias=True)\n    (1): ReLU()\n    (2): Linear(in_features=256, out_features=256, bias=True)\n    (3): ReLU()\n  )\n  (mu): Linear(in_features=256, out_features=3, bias=True)\n  (log_std): Linear(in_features=256, out_features=3, bias=True)\n)', 'critic': 'ContinuousCritic(\n  (features_extractor): CustomEncoder(\n    (cnn_global): Sequential(\n      (0): Conv2d(4, 16, kernel_size=(5, 5), stride=(2, 2), padding=(2, 2), bias=False)\n      (1): GroupNorm(8, 16, eps=1e-05, affine=True)\n      (2): ReLU()\n      (3): Conv2d(16, 32, kernel_size=(3, 3), stride=(2, 2), padding=(1, 1), bias=False)\n      (4): GroupNorm(8, 32, eps=1e-05, affine=True)\n      (5): ReLU()\n      (6): Conv2d(32, 64, kernel_size=(3, 3), stride=(2, 2), padding=(1, 1), bias=False)\n      (7): GroupNorm(8, 64, eps=1e-05, affine=True)\n      (8): ReLU()\n      (9): AdaptiveAvgPool2d(output_size=(1, 1))\n      (10): Flatten(start_dim=1, end_dim=-1)\n    )\n    (cnn_local): Sequential(\n      (0): Conv2d(4, 16, kernel_size=(5, 5), stride=(2, 2), padding=(2, 2), bias=False)\n      (1): GroupNorm(8, 16, eps=1e-05, affine=True)\n      (2): ReLU()\n      (3): Conv2d(16, 32, kernel_size=(3, 3), stride=(2, 2), padding=(1, 1), bias=False)\n      (4): GroupNorm(8, 32, eps=1e-05, affine=True)\n      (5): ReLU()\n      (6): Conv2d(32, 64, kernel_size=(3, 3), stride=(2, 2), padding=(1, 1), bias=False)\n      (7): GroupNorm(8, 64, eps=1e-05, affine=True)\n      (8): ReLU()\n      (9): AdaptiveAvgPool2d(output_size=(1, 1))\n      (10): Flatten(start_dim=1, end_dim=-1)\n    )\n    (pose_mlp): Sequential(\n      (0): Linear(in_features=6, out_features=64, bias=True)\n      (1): LayerNorm((64,), eps=1e-05, elementwise_affine=True)\n      (2): ReLU()\n      (3): Linear(in_features=64, out_features=64, bias=True)\n      (4): LayerNorm((64,), eps=1e-05, elementwise_affine=True)\n      (5): ReLU()\n    )\n    (fuse): Sequential(\n      (0): Linear(in_features=192, out_features=256, bias=True)\n      (1): ReLU()\n      (2): Linear(in_features=256, out_features=256, bias=True)\n      (3): ReLU()\n    )\n  )\n  (qf0): Sequential(\n    (0): Linear(in_features=259, out_features=256, bias=True)\n    (1): ReLU()\n    (2): Linear(in_features=256, out_features=256, bias=True)\n    (3): ReLU()\n    (4): Linear(in_features=256, out_features=1, bias=True)\n  )\n  (qf1): Sequential(\n    (0): Linear(in_features=259, out_features=256, bias=True)\n    (1): ReLU()\n    (2): Linear(in_features=256, out_features=256, bias=True)\n    (3): ReLU()\n    (4): Linear(in_features=256, out_features=1, bias=True)\n  )\n)', 'critic_target': 'ContinuousCritic(\n  (features_extractor): CustomEncoder(\n    (cnn_global): Sequential(\n      (0): Conv2d(4, 16, kernel_size=(5, 5), stride=(2, 2), padding=(2, 2), bias=False)\n      (1): GroupNorm(8, 16, eps=1e-05, affine=True)\n      (2): ReLU()\n      (3): Conv2d(16, 32, kernel_size=(3, 3), stride=(2, 2), padding=(1, 1), bias=False)\n      (4): GroupNorm(8, 32, eps=1e-05, affine=True)\n      (5): ReLU()\n      (6): Conv2d(32, 64, kernel_size=(3, 3), stride=(2, 2), padding=(1, 1), bias=False)\n      (7): GroupNorm(8, 64, eps=1e-05, affine=True)\n      (8): ReLU()\n      (9): AdaptiveAvgPool2d(output_size=(1, 1))\n      (10): Flatten(start_dim=1, end_dim=-1)\n    )\n    (cnn_local): Sequential(\n      (0): Conv2d(4, 16, kernel_size=(5, 5), stride=(2, 2), padding=(2, 2), bias=False)\n      (1): GroupNorm(8, 16, eps=1e-05, affine=True)\n      (2): ReLU()\n      (3): Conv2d(16, 32, kernel_size=(3, 3), stride=(2, 2), padding=(1, 1), bias=False)\n      (4): GroupNorm(8, 32, eps=1e-05, affine=True)\n      (5): ReLU()\n      (6): Conv2d(32, 64, kernel_size=(3, 3), stride=(2, 2), padding=(1, 1), bias=False)\n      (7): GroupNorm(8, 64, eps=1e-05, affine=True)\n      (8): ReLU()\n      (9): AdaptiveAvgPool2d(output_size=(1, 1))\n      (10): Flatten(start_dim=1, end_dim=-1)\n    )\n    (pose_mlp): Sequential(\n      (0): Linear(in_features=6, out_features=64, bias=True)\n      (1): LayerNorm((64,), eps=1e-05, elementwise_affine=True)\n      (2): ReLU()\n      (3): Linear(in_features=64, out_features=64, bias=True)\n      (4): LayerNorm((64,), eps=1e-05, elementwise_affine=True)\n      (5): ReLU()\n    )\n    (fuse): Sequential(\n      (0): Linear(in_features=192, out_features=256, bias=True)\n      (1): ReLU()\n      (2): Linear(in_features=256, out_features=256, bias=True)\n      (3): ReLU()\n    )\n  )\n  (qf0): Sequential(\n    (0): Linear(in_features=259, out_features=256, bias=True)\n    (1): ReLU()\n    (2): Linear(in_features=256, out_features=256, bias=True)\n    (3): ReLU()\n    (4): Linear(in_features=256, out_features=1, bias=True)\n  )\n  (qf1): Sequential(\n    (0): Linear(in_features=259, out_features=256, bias=True)\n    (1): ReLU()\n    (2): Linear(in_features=256, out_features=256, bias=True)\n    (3): ReLU()\n    (4): Linear(in_features=256, out_features=1, bias=True)\n  )\n)', 'batch_norm_stats': '[]', 'batch_norm_stats_target': '[]', '_logger': '<stable_baselines3.common.logger.Logger object at 0x7f34aac97bc0>'}
2026-01-26 15:33:33,714 INFO    wandb-AsyncioManager-main:54148 [service_client.py:_forward_responses():80] Reached EOF.
2026-01-26 15:33:33,714 INFO    wandb-AsyncioManager-main:54148 [mailbox.py:close():137] Closing mailbox, abandoning 1 handles.
