…
                writerId: x6smd4uz24g8ba06pizz3wkd8cri6676
        m: []
        python_version: 3.12.12
        t:
            "1":
                - 1
            "2":
                - 1
            "3":
                - 13
                - 16
                - 22
                - 35
            "4": 3.12.12
            "5": 0.23.1
            "12": 0.23.1
            "13": linux-x86_64
action_noise:
    value: None
action_space:
    value: Box(-1.0, 1.0, (3,), float32)
actor:
    value: |-
        Actor(
          (features_extractor): CustomEncoder(
            (cnn_global): Sequential(
              (0): Conv2d(4, 16, kernel_size=(5, 5), stride=(2, 2), padding=(2, 2), bias=False)
              (1): GroupNorm(8, 16, eps=1e-05, affine=True)
              (2): ReLU()
              (3): Conv2d(16, 32, kernel_size=(3, 3), stride=(2, 2), padding=(1, 1), bias=False)
              (4): GroupNorm(8, 32, eps=1e-05, affine=True)
              (5): ReLU()
              (6): Conv2d(32, 64, kernel_size=(3, 3), stride=(2, 2), padding=(1, 1), bias=False)
              (7): GroupNorm(8, 64, eps=1e-05, affine=True)
              (8): ReLU()
              (9): AdaptiveAvgPool2d(output_size=(1, 1))
              (10): Flatten(start_dim=1, end_dim=-1)
            )
            (cnn_local): Sequential(
              (0): Conv2d(4, 16, kernel_size=(5, 5), stride=(2, 2), padding=(2, 2), bias=False)
              (1): GroupNorm(8, 16, eps=1e-05, affine=True)
              (2): ReLU()
              (3): Conv2d(16, 32, kernel_size=(3, 3), stride=(2, 2), padding=(1, 1), bias=False)
              (4): GroupNorm(8, 32, eps=1e-05, affine=True)
              (5): ReLU()
              (6): Conv2d(32, 64, kernel_size=(3, 3), stride=(2, 2), padding=(1, 1), bias=False)
              (7): GroupNorm(8, 64, eps=1e-05, affine=True)
              (8): ReLU()
              (9): AdaptiveAvgPool2d(output_size=(1, 1))
              (10): Flatten(start_dim=1, end_dim=-1)
            )
            (pose_mlp): Sequential(
              (0): Linear(in_features=6, out_features=64, bias=True)
              (1): LayerNorm((64,), eps=1e-05, elementwise_affine=True)
              (2): ReLU()
              (3): Linear(in_features=64, out_features=64, bias=True)
              (4): LayerNorm((64,), eps=1e-05, elementwise_affine=True)
              (5): ReLU()
            )
            (fuse): Sequential(
              (0): Linear(in_features=192, out_features=256, bias=True)
              (1): ReLU()
              (2): Linear(in_features=256, out_features=256, bias=True)
              (3): ReLU()
            )
          )
          (latent_pi): Sequential(
            (0): Linear(in_features=256, out_features=256, bias=True)
            (1): ReLU()
            (2): Linear(in_features=256, out_features=256, bias=True)
            (3): ReLU()
          )
          (mu): Linear(in_features=256, out_features=3, bias=True)
          (log_std): Linear(in_features=256, out_features=3, bias=True)
        )
algo:
    value: SAC
batch_norm_stats:
    value: '[]'
batch_norm_stats_target:
    value: '[]'
batch_size:
    value: 32
buffer_size:
    value: 10000
critic:
    value: |-
        ContinuousCritic(
          (features_extractor): CustomEncoder(
            (cnn_global): Sequential(
              (0): Conv2d(4, 16, kernel_size=(5, 5), stride=(2, 2), padding=(2, 2), bias=False)
              (1): GroupNorm(8, 16, eps=1e-05, affine=True)
              (2): ReLU()
              (3): Conv2d(16, 32, kernel_size=(3, 3), stride=(2, 2), padding=(1, 1), bias=False)
              (4): GroupNorm(8, 32, eps=1e-05, affine=True)
              (5): ReLU()
              (6): Conv2d(32, 64, kernel_size=(3, 3), stride=(2, 2), padding=(1, 1), bias=False)
              (7): GroupNorm(8, 64, eps=1e-05, affine=True)
              (8): ReLU()
              (9): AdaptiveAvgPool2d(output_size=(1, 1))
              (10): Flatten(start_dim=1, end_dim=-1)
            )
            (cnn_local): Sequential(
              (0): Conv2d(4, 16, kernel_size=(5, 5), stride=(2, 2), padding=(2, 2), bias=False)
              (1): GroupNorm(8, 16, eps=1e-05, affine=True)
              (2): ReLU()
              (3): Conv2d(16, 32, kernel_size=(3, 3), stride=(2, 2), padding=(1, 1), bias=False)
              (4): GroupNorm(8, 32, eps=1e-05, affine=True)
              (5): ReLU()
              (6): Conv2d(32, 64, kernel_size=(3, 3), stride=(2, 2), padding=(1, 1), bias=False)
              (7): GroupNorm(8, 64, eps=1e-05, affine=True)
              (8): ReLU()
              (9): AdaptiveAvgPool2d(output_size=(1, 1))
              (10): Flatten(start_dim=1, end_dim=-1)
            )
            (pose_mlp): Sequential(
              (0): Linear(in_features=6, out_features=64, bias=True)
              (1): LayerNorm((64,), eps=1e-05, elementwise_affine=True)
              (2): ReLU()
              (3): Linear(in_features=64, out_features=64, bias=True)
              (4): LayerNorm((64,), eps=1e-05, elementwise_affine=True)
              (5): ReLU()
            )
            (fuse): Sequential(
              (0): Linear(in_features=192, out_features=256, bias=True)
              (1): ReLU()
              (2): Linear(in_features=256, out_features=256, bias=True)
              (3): ReLU()
            )
          )
          (qf0): Sequential(
            (0): Linear(in_features=259, out_features=256, bias=True)
            (1): ReLU()
            (2): Linear(in_features=256, out_features=256, bias=True)
            (3): ReLU()
            (4): Linear(in_features=256, out_features=1, bias=True)
          )
          (qf1): Sequential(
            (0): Linear(in_features=259, out_features=256, bias=True)
            (1): ReLU()
            (2): Linear(in_features=256, out_features=256, bias=True)
            (3): ReLU()
            (4): Linear(in_features=256, out_features=1, bias=True)
          )
        )
critic_target:
    value: |-
        ContinuousCritic(
          (features_extractor): CustomEncoder(
            (cnn_global): Sequential(
              (0): Conv2d(4, 16, kernel_size=(5, 5), stride=(2, 2), padding=(2, 2), bias=False)
              (1): GroupNorm(8, 16, eps=1e-05, affine=True)
              (2): ReLU()
              (3): Conv2d(16, 32, kernel_size=(3, 3), stride=(2, 2), padding=(1, 1), bias=False)
              (4): GroupNorm(8, 32, eps=1e-05, affine=True)
              (5): ReLU()
              (6): Conv2d(32, 64, kernel_size=(3, 3), stride=(2, 2), padding=(1, 1), bias=False)
              (7): GroupNorm(8, 64, eps=1e-05, affine=True)
              (8): ReLU()
              (9): AdaptiveAvgPool2d(output_size=(1, 1))
              (10): Flatten(start_dim=1, end_dim=-1)
            )
            (cnn_local): Sequential(
              (0): Conv2d(4, 16, kernel_size=(5, 5), stride=(2, 2), padding=(2, 2), bias=False)
              (1): GroupNorm(8, 16, eps=1e-05, affine=True)
              (2): ReLU()
              (3): Conv2d(16, 32, kernel_size=(3, 3), stride=(2, 2), padding=(1, 1), bias=False)
              (4): GroupNorm(8, 32, eps=1e-05, affine=True)
              (5): ReLU()
              (6): Conv2d(32, 64, kernel_size=(3, 3), stride=(2, 2), padding=(1, 1), bias=False)
              (7): GroupNorm(8, 64, eps=1e-05, affine=True)
              (8): ReLU()
              (9): AdaptiveAvgPool2d(output_size=(1, 1))
              (10): Flatten(start_dim=1, end_dim=-1)
            )
            (pose_mlp): Sequential(
              (0): Linear(in_features=6, out_features=64, bias=True)
              (1): LayerNorm((64,), eps=1e-05, elementwise_affine=True)
              (2): ReLU()
              (3): Linear(in_features=64, out_features=64, bias=True)
              (4): LayerNorm((64,), eps=1e-05, elementwise_affine=True)
              (5): ReLU()
            )
            (fuse): Sequential(
              (0): Linear(in_features=192, out_features=256, bias=True)
              (1): ReLU()
              (2): Linear(in_features=256, out_features=256, bias=True)
              (3): ReLU()
            )
          )
          (qf0): Sequential(
            (0): Linear(in_features=259, out_features=256, bias=True)
            (1): ReLU()
            (2): Linear(in_features=256, out_features=256, bias=True)
            (3): ReLU()
            (4): Linear(in_features=256, out_features=1, bias=True)
          )
          (qf1): Sequential(
            (0): Linear(in_features=259, out_features=256, bias=True)
            (1): ReLU()
            (2): Linear(in_features=256, out_features=256, bias=True)
            (3): ReLU()
            (4): Linear(in_features=256, out_features=1, bias=True)
          )
        )
device:
    value: cuda
ent_coef:
    value: auto
ent_coef_optimizer:
    value: |-
        Adam (
        Parameter Group 0
            amsgrad: False
            betas: (0.9, 0.999)
            capturable: False
            decoupled_weight_decay: False
            differentiable: False
            eps: 1e-08
            foreach: None
…
