…
                writerId: 1m5slrf8w8v1tf7w9xzgt7yz9zb956fs
        m: []
        python_version: 3.12.12
        t:
            "1":
                - 1
            "2":
                - 1
            "3":
                - 2
                - 3
                - 13
                - 16
                - 22
                - 35
            "4": 3.12.12
            "5": 0.23.1
            "12": 0.23.1
            "13": linux-x86_64
action_noise:
    value: None
action_space:
    value: Box(-1.0, 1.0, (2,), float32)
actor:
    value: |-
        Actor(
          (features_extractor): CustomCNN(
            (cnn): Sequential(
              (0): Conv2d(2, 16, kernel_size=(5, 5), stride=(2, 2), padding=(2, 2))
              (1): ReLU()
              (2): Conv2d(16, 32, kernel_size=(3, 3), stride=(2, 2), padding=(1, 1))
              (3): ReLU()
              (4): Conv2d(32, 64, kernel_size=(3, 3), stride=(2, 2), padding=(1, 1))
              (5): ReLU()
              (6): Flatten(start_dim=1, end_dim=-1)
            )
            (linear): Sequential(
              (0): Linear(in_features=4096, out_features=256, bias=True)
              (1): ReLU()
            )
          )
          (latent_pi): Sequential(
            (0): Linear(in_features=256, out_features=256, bias=True)
            (1): ReLU()
            (2): Linear(in_features=256, out_features=256, bias=True)
            (3): ReLU()
          )
          (mu): Linear(in_features=256, out_features=2, bias=True)
          (log_std): Linear(in_features=256, out_features=2, bias=True)
        )
algo:
    value: SAC
batch_norm_stats:
    value: '[]'
batch_norm_stats_target:
    value: '[]'
batch_size:
    value: 256
buffer_size:
    value: 200000
critic:
    value: |-
        ContinuousCritic(
          (features_extractor): CustomCNN(
            (cnn): Sequential(
              (0): Conv2d(2, 16, kernel_size=(5, 5), stride=(2, 2), padding=(2, 2))
              (1): ReLU()
              (2): Conv2d(16, 32, kernel_size=(3, 3), stride=(2, 2), padding=(1, 1))
              (3): ReLU()
              (4): Conv2d(32, 64, kernel_size=(3, 3), stride=(2, 2), padding=(1, 1))
              (5): ReLU()
              (6): Flatten(start_dim=1, end_dim=-1)
            )
            (linear): Sequential(
              (0): Linear(in_features=4096, out_features=256, bias=True)
              (1): ReLU()
            )
          )
          (qf0): Sequential(
            (0): Linear(in_features=258, out_features=256, bias=True)
            (1): ReLU()
            (2): Linear(in_features=256, out_features=256, bias=True)
            (3): ReLU()
            (4): Linear(in_features=256, out_features=1, bias=True)
          )
          (qf1): Sequential(
            (0): Linear(in_features=258, out_features=256, bias=True)
            (1): ReLU()
            (2): Linear(in_features=256, out_features=256, bias=True)
            (3): ReLU()
            (4): Linear(in_features=256, out_features=1, bias=True)
          )
        )
critic_target:
    value: |-
        ContinuousCritic(
          (features_extractor): CustomCNN(
            (cnn): Sequential(
              (0): Conv2d(2, 16, kernel_size=(5, 5), stride=(2, 2), padding=(2, 2))
              (1): ReLU()
              (2): Conv2d(16, 32, kernel_size=(3, 3), stride=(2, 2), padding=(1, 1))
              (3): ReLU()
              (4): Conv2d(32, 64, kernel_size=(3, 3), stride=(2, 2), padding=(1, 1))
              (5): ReLU()
              (6): Flatten(start_dim=1, end_dim=-1)
            )
            (linear): Sequential(
              (0): Linear(in_features=4096, out_features=256, bias=True)
              (1): ReLU()
            )
          )
          (qf0): Sequential(
            (0): Linear(in_features=258, out_features=256, bias=True)
            (1): ReLU()
            (2): Linear(in_features=256, out_features=256, bias=True)
            (3): ReLU()
            (4): Linear(in_features=256, out_features=1, bias=True)
          )
          (qf1): Sequential(
            (0): Linear(in_features=258, out_features=256, bias=True)
            (1): ReLU()
            (2): Linear(in_features=256, out_features=256, bias=True)
            (3): ReLU()
            (4): Linear(in_features=256, out_features=1, bias=True)
          )
        )
device:
    value: cuda
ent_coef:
    value: auto
ent_coef_optimizer:
    value: |-
        Adam (
        Parameter Group 0
            amsgrad: False
            betas: (0.9, 0.999)
            capturable: False
            decoupled_weight_decay: False
            differentiable: False
            eps: 1e-08
            foreach: None
…
