…
grad=True)", 'ent_coef': 'auto', 'target_update_interval': 1, 'ent_coef_optimizer': 'Adam (\nParameter Group 0\n    amsgrad: False\n    betas: (0.9, 0.999)\n    capturable: False\n    decoupled_weight_decay: False\n    differentiable: False\n    eps: 1e-08\n    foreach: None\n    fused: None\n    lr: 0.0003\n    maximize: False\n    weight_decay: 0\n)', 'lr_schedule': 'FloatSchedule(ConstantSchedule(val=0.0003))', 'batch_norm_stats': '[]', 'batch_norm_stats_target': '[]', 'policy': 'MultiInputPolicy(\n  (actor): Actor(\n    (features_extractor): CustomCNN(\n      (cnn): Sequential(\n        (0): Conv2d(2, 16, kernel_size=(5, 5), stride=(2, 2), padding=(2, 2))\n        (1): ReLU()\n        (2): Conv2d(16, 32, kernel_size=(3, 3), stride=(2, 2), padding=(1, 1))\n        (3): ReLU()\n        (4): Conv2d(32, 64, kernel_size=(3, 3), stride=(2, 2), padding=(1, 1))\n        (5): ReLU()\n        (6): Flatten(start_dim=1, end_dim=-1)\n      )\n      (pose_mlp): Sequential(\n        (0): Linear(in_features=6, out_features=64, bias=True)\n        (1): ReLU()\n        (2): Linear(in_features=64, out_features=64, bias=True)\n        (3): ReLU()\n      )\n      (fuse): Sequential(\n        (0): Linear(in_features=4160, out_features=256, bias=True)\n        (1): ReLU()\n      )\n    )\n    (latent_pi): Sequential(\n      (0): Linear(in_features=256, out_features=256, bias=True)\n      (1): ReLU()\n      (2): Linear(in_features=256, out_features=256, bias=True)\n      (3): ReLU()\n    )\n    (mu): Linear(in_features=256, out_features=2, bias=True)\n    (log_std): Linear(in_features=256, out_features=2, bias=True)\n  )\n  (critic): ContinuousCritic(\n    (features_extractor): CustomCNN(\n      (cnn): Sequential(\n        (0): Conv2d(2, 16, kernel_size=(5, 5), stride=(2, 2), padding=(2, 2))\n        (1): ReLU()\n        (2): Conv2d(16, 32, kernel_size=(3, 3), stride=(2, 2), padding=(1, 1))\n        (3): ReLU()\n        (4): Conv2d(32, 64, kernel_size=(3, 3), stride=(2, 2), padding=(1, 1))\n        (5): ReLU()\n        (6): Flatten(start_dim=1, end_dim=-1)\n      )\n      (pose_mlp): Sequential(\n        (0): Linear(in_features=6, out_features=64, bias=True)\n        (1): ReLU()\n        (2): Linear(in_features=64, out_features=64, bias=True)\n        (3): ReLU()\n      )\n      (fuse): Sequential(\n        (0): Linear(in_features=4160, out_features=256, bias=True)\n        (1): ReLU()\n      )\n    )\n    (qf0): Sequential(\n      (0): Linear(in_features=258, out_features=256, bias=True)\n      (1): ReLU()\n      (2): Linear(in_features=256, out_features=256, bias=True)\n      (3): ReLU()\n      (4): Linear(in_features=256, out_features=1, bias=True)\n    )\n    (qf1): Sequential(\n      (0): Linear(in_features=258, out_features=256, bias=True)\n      (1): ReLU()\n      (2): Linear(in_features=256, out_features=256, bias=True)\n      (3): ReLU()\n      (4): Linear(in_features=256, out_features=1, bias=True)\n    )\n  )\n  (critic_target): ContinuousCritic(\n    (features_extractor): CustomCNN(\n      (cnn): Sequential(\n        (0): Conv2d(2, 16, kernel_size=(5, 5), stride=(2, 2), padding=(2, 2))\n        (1): ReLU()\n        (2): Conv2d(16, 32, kernel_size=(3, 3), stride=(2, 2), padding=(1, 1))\n        (3): ReLU()\n        (4): Conv2d(32, 64, kernel_size=(3, 3), stride=(2, 2), padding=(1, 1))\n        (5): ReLU()\n        (6): Flatten(start_dim=1, end_dim=-1)\n      )\n      (pose_mlp): Sequential(\n        (0): Linear(in_features=6, out_features=64, bias=True)\n        (1): ReLU()\n        (2): Linear(in_features=64, out_features=64, bias=True)\n        (3): ReLU()\n      )\n      (fuse): Sequential(\n        (0): Linear(in_features=4160, out_features=256, bias=True)\n        (1): ReLU()\n      )\n    )\n    (qf0): Sequential(\n      (0): Linear(in_features=258, out_features=256, bias=True)\n      (1): ReLU()\n      (2): Linear(in_features=256, out_features=256, bias=True)\n      (3): ReLU()\n      (4): Linear(in_features=256, out_features=1, bias=True)\n    )\n    (qf1): Sequential(\n      (0): Linear(in_features=258, out_features=256, bias=True)\n      (1): ReLU()\n      (2): Linear(in_features=256, out_features=256, bias=True)\n      (3): ReLU()\n      (4): Linear(in_features=256, out_features=1, bias=True)\n    )\n  )\n)', 'actor': 'Actor(\n  (features_extractor): CustomCNN(\n    (cnn): Sequential(\n      (0): Conv2d(2, 16, kernel_size=(5, 5), stride=(2, 2), padding=(2, 2))\n      (1): ReLU()\n      (2): Conv2d(16, 32, kernel_size=(3, 3), stride=(2, 2), padding=(1, 1))\n      (3): ReLU()\n      (4): Conv2d(32, 64, kernel_size=(3, 3), stride=(2, 2), padding=(1, 1))\n      (5): ReLU()\n      (6): Flatten(start_dim=1, end_dim=-1)\n    )\n    (pose_mlp): Sequential(\n      (0): Linear(in_features=6, out_features=64, bias=True)\n      (1): ReLU()\n      (2): Linear(in_features=64, out_features=64, bias=True)\n      (3): ReLU()\n    )\n    (fuse): Sequential(\n      (0): Linear(in_features=4160, out_features=256, bias=True)\n      (1): ReLU()\n    )\n  )\n  (latent_pi): Sequential(\n    (0): Linear(in_features=256, out_features=256, bias=True)\n    (1): ReLU()\n    (2): Linear(in_features=256, out_features=256, bias=True)\n    (3): ReLU()\n  )\n  (mu): Linear(in_features=256, out_features=2, bias=True)\n  (log_std): Linear(in_features=256, out_features=2, bias=True)\n)', 'critic': 'ContinuousCritic(\n  (features_extractor): CustomCNN(\n    (cnn): Sequential(\n      (0): Conv2d(2, 16, kernel_size=(5, 5), stride=(2, 2), padding=(2, 2))\n      (1): ReLU()\n      (2): Conv2d(16, 32, kernel_size=(3, 3), stride=(2, 2), padding=(1, 1))\n      (3): ReLU()\n      (4): Conv2d(32, 64, kernel_size=(3, 3), stride=(2, 2), padding=(1, 1))\n      (5): ReLU()\n      (6): Flatten(start_dim=1, end_dim=-1)\n    )\n    (pose_mlp): Sequential(\n      (0): Linear(in_features=6, out_features=64, bias=True)\n      (1): ReLU()\n      (2): Linear(in_features=64, out_features=64, bias=True)\n      (3): ReLU()\n    )\n    (fuse): Sequential(\n      (0): Linear(in_features=4160, out_features=256, bias=True)\n      (1): ReLU()\n    )\n  )\n  (qf0): Sequential(\n    (0): Linear(in_features=258, out_features=256, bias=True)\n    (1): ReLU()\n    (2): Linear(in_features=256, out_features=256, bias=True)\n    (3): ReLU()\n    (4): Linear(in_features=256, out_features=1, bias=True)\n  )\n  (qf1): Sequential(\n    (0): Linear(in_features=258, out_features=256, bias=True)\n    (1): ReLU()\n    (2): Linear(in_features=256, out_features=256, bias=True)\n    (3): ReLU()\n    (4): Linear(in_features=256, out_features=1, bias=True)\n  )\n)', 'critic_target': 'ContinuousCritic(\n  (features_extractor): CustomCNN(\n    (cnn): Sequential(\n      (0): Conv2d(2, 16, kernel_size=(5, 5), stride=(2, 2), padding=(2, 2))\n      (1): ReLU()\n      (2): Conv2d(16, 32, kernel_size=(3, 3), stride=(2, 2), padding=(1, 1))\n      (3): ReLU()\n      (4): Conv2d(32, 64, kernel_size=(3, 3), stride=(2, 2), padding=(1, 1))\n      (5): ReLU()\n      (6): Flatten(start_dim=1, end_dim=-1)\n    )\n    (pose_mlp): Sequential(\n      (0): Linear(in_features=6, out_features=64, bias=True)\n      (1): ReLU()\n      (2): Linear(in_features=64, out_features=64, bias=True)\n      (3): ReLU()\n    )\n    (fuse): Sequential(\n      (0): Linear(in_features=4160, out_features=256, bias=True)\n      (1): ReLU()\n    )\n  )\n  (qf0): Sequential(\n    (0): Linear(in_features=258, out_features=256, bias=True)\n    (1): ReLU()\n    (2): Linear(in_features=256, out_features=256, bias=True)\n    (3): ReLU()\n    (4): Linear(in_features=256, out_features=1, bias=True)\n  )\n  (qf1): Sequential(\n    (0): Linear(in_features=258, out_features=256, bias=True)\n    (1): ReLU()\n    (2): Linear(in_features=256, out_features=256, bias=True)\n    (3): ReLU()\n    (4): Linear(in_features=256, out_features=1, bias=True)\n  )\n)', '_logger': '<stable_baselines3.common.logger.Logger object at 0x7eff73ff3170>'}
2026-01-16 22:56:45,733 INFO    MainThread:51694 [sb3.py:save_model():147] [no run ID] Saving model checkpoint to ./wandb_models/model.zip
2026-01-16 23:04:27,424 INFO    MainThread:51694 [sb3.py:save_model():147] [no run ID] Saving model checkpoint to ./wandb_models/model.zip
…
